…
28 02:21:59,665] A new study created in memory with name: no-name-2032e101-196f-4cd0-8fab-778a43f2fd34
-----biginning training-----
Namespace(epochs=10, learning_rate=0.00108000506011074, weight_decay=3.0428681049705933e-05, patience=5, seed=42, batch_size=128, output_dir='./output')
device: cuda:0
lr: 0.00108, wd: 3e-05
calculating mean and std...
num classes: 10
mean: tensor([0.5323, 0.5678, 0.5899]), std: tensor([0.2404, 0.2307, 0.2577])
loading dataset...
dpr [… num_knn [9, 9, 10, 10, 11, 12, 12, 13, 13, 14, 15, 15, 16, 16, 17, 18]
DeepGCN(
  (stem): Stem(
    (convs): Sequential(
      (0): Conv2d(3, 80, kernel_size=(3, 3), stride=(2, 2), padding=(1, 1))
      (1): BatchNorm2d(80, eps=1e-05, momentum=0.1, affine=True, track_running_stats=True)
      (2): GELU(approximate='none')
      (3): Conv2d(80, 160, kernel_size=(3, 3), stride=(2, 2), padding=(1, 1))
      (4): BatchNorm2d(160, eps=1e-05, momentum=0.1, affine=True, track_running_stats=True)
      (5): GELU(approximate='none')
      (6): Conv2d(160, 320, kernel_size=(3, 3), stride=(2, 2), padding=(1, 1))
      (7): BatchNorm2d(320, eps=1e-05, momentum=0.1, affine=True, track_running_stats=True)
      (8): GELU(approximate='none')
      (9): Conv2d(320, 640, kernel_size=(3, 3), stride=(2, 2), padding=(1, 1))
      (10): BatchNorm2d(640, eps=1e-05, momentum=0.1, affine=True, track_running_stats=True)
      (11): GELU(approximate='none')
      (12): Conv2d(640, 640, kernel_size=(3, 3), stride=(1, 1), padding=(1, 1))
      (13): BatchNorm2d(640, eps=1e-05, momentum=0.1, affine=True, track_running_stats=True)
    )
  )
  (backbone): Sequential(
    (0): Sequential(
      (0): Grapher(
        (fc1): Sequential(
          (0): Conv2d(640, 640, kernel_size=(1, 1), stride=(1, 1))
          (1): BatchNorm2d(640, eps=1e-05, momentum=0.1, affine=True, track_running_stats=True)
        )
        (graph_conv): DyGraphConv2d(
          (gconv): MRConv2d(
            (nn): BasicConv(
              (0): Conv2d(1280, 1280, kernel_size=(1, 1), stride=(1, 1), groups=4)
              (1): BatchNorm2d(1280, eps=1e-05, momentum=0.1, affine=True, track_running_stats=True)
              (2): GELU(approximate='none')
            )
          )
          (dilated_knn_graph): DenseDilatedKnnGraph(
            (_dilated): DenseDilated()
          )
        )
        (fc2): Sequential(
          (0): Conv2d(1280, 640, kernel_size=(1, 1), stride=(1, 1))
          (1): BatchNorm2d(640, eps=1e-05, momentum=0.1, affine=True, track_running_stats=True)
        )
        (drop_path): Identity()
      )
      (1): FFN(
        (fc1): Sequential(
          (0): Conv2d(640, 2560, kernel_size=(1, 1), stride=(1, 1))
          (1): BatchNorm2d(2560, eps=1e-05, momentum=0.1, affine=True, track_running_stats=True)
        )
        (act): GELU(approximate='none')
        (fc2): Sequential(
          (0): Conv2d(2560, 640, kernel_size=(1, 1), stride=(1, 1))
          (1): BatchNorm2d(640, eps=1e-05, momentum=0.1, affine=True, track_running_stats=True)
        )
        (drop_path): Identity()
      )
    )
    (1): Sequential(
      (0): Grapher(
        (fc1): Sequential(
          (0): Conv2d(640, 640, kernel_size=(1, 1), stride=(1, 1))
          (1): BatchNorm2d(640, eps=1e-05, momentum=0.1, affine=True, track_running_stats=True)
        )
        (graph_conv): DyGraphConv2d(
          (gconv): MRConv2d(
            (nn): BasicConv(
              (0): Conv2d(1280, 1280, kernel_size=(1, 1), stride=(1, 1), groups=4)
              (1): BatchNorm2d(1280, eps=1e-05, momentum=0.1, affine=True, track_running_stats=True)
              (2): GELU(approximate='none')
            )
          )
          (dilated_knn_graph): DenseDilatedKnnGraph(
            (_dilated): DenseDilated()
          )
        )
        (fc2): Sequential(
          (0): Conv2d(1280, 640, kernel_size=(1, 1), stride=(1, 1))
          (1): BatchNorm2d(640, eps=1e-05, momentum=0.1, affine=True, track_running_stats=True)
        )
        (drop_path): Identity()
      )
      (1): FFN(
        (fc1): Sequential(
          (0): Conv2d(640, 2560, kernel_size=(1, 1), stride=(1, 1))
          (1): BatchNorm2d(2560, eps=1e-05, momentum=0.1, affine=True, track_running_stats=True)
        )
        (act): GELU(approximate='none')
        (fc2): Sequential(
          (0): Conv2d(2560, 640, kernel_size=(1, 1), stride=(1, 1))
          (1): BatchNorm2d(640, eps=1e-05, momentum=0.1, affine=True, track_running_stats=True)
        )
        (drop_path): Identity()
      )
    )
    (2): Sequential(
      (0): Grapher(
        (fc1): Sequential(
          (0): Conv2d(640, 640, kernel_size=(1, 1), stride=(1, 1))
          (1): BatchNorm2d(640, eps=1e-05, momentum=0.1, affine=True, track_running_stats=True)
        )
        (graph_conv): DyGraphConv2d(
          (gconv): MRConv2d(
            (nn): BasicConv(
              (0): Conv2d(1280, 1280, kernel_size=(1, 1), stride=(1, 1), groups=4)
              (1): BatchNorm2d(1280, eps=1e-05, momentum=0.1, affine=True, track_running_stats=True)
              (2): GELU(approximate='none')
            )
          )
          (dilated_knn_graph): DenseDilatedKnnGraph(
            (_dilated): DenseDilated()
          )
        )
        (fc2): Sequential(
          (0): Conv2d(1280, 640, kernel_size=(1, 1), stride=(1, 1))
          (1): BatchNorm2d(640, eps=1e-05, momentum=0.1, affine=True, track_running_stats=True)
        )
        (drop_path): Identity()
      )
      (1): FFN(
        (fc1): Sequential(
          (0): Conv2d(640, 2560, kernel_size=(1, 1), stride=(1, 1))
          (1): BatchNorm2d(2560, eps=1e-05, momentum=0.1, affine=True, track_running_stats=True)
        )
        (act): GELU(approximate='none')
        (fc2): Sequential(
          (0): Conv2d(2560, 640, kernel_size=(1, 1), stride=(1, 1))
          (1): BatchNorm2d(640, eps=1e-05, momentum=0.1, affine=True, track_running_stats=True)
        )
        (drop_path): Identity()
      )
    )
    (3): Sequential(
      (0): Grapher(
        (fc1): Sequential(
          (0): Conv2d(640, 640, kernel_size=(1, 1), stride=(1, 1))
          (1): BatchNorm2d(640, eps=1e-05, momentum=0.1, affine=True, track_running_stats=True)
        )
        (graph_conv): DyGraphConv2d(
          (gconv): MRConv2d(
            (nn): BasicConv(
              (0): Conv2d(1280, 1280, kernel_size=(1, 1), stride=(1, 1), groups=4)
              (1): BatchNorm2d(1280, eps=1e-05, momentum=0.1, affine=True, track_running_stats=True)
              (2): GELU(approximate='none')
            )
          )
          (dilated_knn_graph): DenseDilatedKnnGraph(
            (_dilated): DenseDilated()
          )
        )
        (fc2): Sequential(
          (0): Conv2d(1280, 640, kernel_size=(1, 1), stride=(1, 1))
          (1): BatchNorm2d(640, eps=1e-05, momentum=0.1, affine=True, track_running_stats=True)
        )
        (drop_path): Identity()
      )
      (1): FFN(
        (fc1): Sequential(
          (0): Conv2d(640, 2560, kernel_size=(1, 1), stride=(1, 1))
          (1): BatchNorm2d(2560, eps=1e-05, momentum=0.1, affine=True, track_running_stats=True)
        )
        (act): GELU(approximate='none')
        (fc2): Sequential(
          (0): Conv2d(2560, 640, kernel_size=(1, 1), stride=(1, 1))
          (1): BatchNorm2d(640, eps=1e-05, momentum=0.1, affine=True, track_running_stats=True)
        )
        (drop_path): Identity()
      )
    )
    (4): Sequential(
      (0): Grapher(
        (fc1): Sequential(
          (0): Conv2d(640, 640, kernel_size=(1, 1), stride=(1, 1))
          (1): BatchNorm2d(640, eps=1e-05, momentum=0.1, affine=True, track_running_stats=True)
        )
        (graph_conv): DyGraphConv2d(
          (gconv): MRConv2d(
            (nn): BasicConv(
              (0): Conv2d(1280, 1280, kernel_size=(1, 1), stride=(1, 1), groups=4)
              (1): BatchNorm2d(1280, eps=1e-05, momentum=0.1, affine=True, track_running_stats=True)
              (2): GELU(approximate='none')
            )
          )
          (dilated_knn_graph): DenseDilatedKnnGraph(
            (_dilated): DenseDilated()
          )
        )
        (fc2): Sequential(
          (0): Conv2d(1280, 640, kernel_size=(1, 1), stride=(1, 1))
          (1): BatchNorm2d(640, eps=1e-05, momentum=0.1, affine=True, track_running_stats=True)
        )
        (drop_path): Identity()
      )
      (1): FFN(
        (fc1): Sequential(
          (0): Conv2d(640, 2560, kernel_size=(1, 1), stride=(1, 1))
          (1): BatchNorm2d(2560, eps=1e-05, momentum=0.1, affine=True, track_running_stats=True)
        )
        (act): GELU(approximate='none')
        (fc2): Sequential(
          (0): Conv2d(2560, 640, kernel_size=(1, 1), stride=(1, 1))
          (1): BatchNorm2d(640, eps=1e-05, momentum=0.1, affine=True, track_running_stats=True)
        )
        (drop_path): Identity()
      )
    )
    (5): Sequential(
      (0): Grapher(
        (fc1): Sequential(
          (0): Conv2d(640, 640, kernel_size=(1, 1), stride=(1, 1))
          (1): BatchNorm2d(640, eps=1e-05, momentum=0.1, affine=True, track_running_stats=True)
        )
        (graph_conv): DyGraphConv2d(
          (gconv): MRConv2d(
            (nn): BasicConv(
              (0): Conv2d(1280, 1280, kernel_size=(1, 1), stride=(1, 1), groups=4)
              (1): BatchNorm2d(1280, eps=1e-05, momentum=0.1, affine=True, track_running_stats=True)
              (2): GELU(approximate='none')
            )
          )
          (dilated_knn_graph): DenseDilatedKnnGraph(
            (_dilated): DenseDilated()
          )
        )
        (fc2): Sequential(
          (0): Conv2d(1280, 640, kernel_size=(1, 1), stride=(1, 1))
          (1): BatchNorm2d(640, eps=1e-05, momentum=0.1, affine=True, track_running_stats=True)
        )
        (drop_path): Identity()
      )
      (1): FFN(
        (fc1): Sequential(
          (0): Conv2d(640, 2560, kernel_size=(1, 1), stride=(1, 1))
          (1): BatchNorm2d(2560, eps=1e-05, momentum=0.1, affine=True, track_running_stats=True)
        )
        (act): GELU(approximate='none')
        (fc2): Sequential(
          (0): Conv2d(2560, 640, kernel_size=(1, 1), stride=(1, 1))
          (1): BatchNorm2d(640, eps=1e-05, momentum=0.1, affine=True, track_running_stats=True)
        )
        (drop_path): Identity()
      )
    )
    (6): Sequential(
      (0): Grapher(
        (fc1): Sequential(
          (0): Conv2d(640, 640, kernel_size=(1, 1), stride=(1, 1))
          (1): BatchNorm2d(640, eps=1e-05, momentum=0.1, affine=True, track_running_stats=True)
        )
        (graph_conv): DyGraphConv2d(
          (gconv): MRConv2d(
            (nn): BasicConv(
              (0): Conv2d(1280, 1280, kernel_size=(1, 1), stride=(1, 1), groups=4)
              (1): BatchNorm2d(1280, eps=1e-05, momentum=0.1, affine=True, track_running_stats=True)
              (2): GELU(approximate='none')
            )
          )
          (dilated_knn_graph): DenseDilatedKnnGraph(
            (_dilated): DenseDilated()
          )
        )
        (fc2): Sequential(
          (0): Conv2d(1280, 640, kernel_size=(1, 1), stride=(1, 1))
          (1): BatchNorm2d(640, eps=1e-05, momentum=0.1, affine=True, track_running_stats=True)
        )
        (drop_path): Identity()
      )
      (1): FFN(
        (fc1): Sequential(
          (0): Conv2d(640, 2560, kernel_size=(1, 1), stride=(1, 1))
          (1): BatchNorm2d(2560, eps=1e-05, momentum=0.1, affine=True, track_running_stats=True)
        )
        (act): GELU(approximate='none')
        (fc2): Sequential(
          (0): Conv2d(2560, 640, kernel_size=(1, 1), stride=(1, 1))
          (1): BatchNorm2d(640, eps=1e-05, momentum=0.1, affine=True, track_running_stats=True)
        )
        (drop_path): Identity()
      )
    )
    (7): Sequential(
      (0): Grapher(
        (fc1): Sequential(
          (0): Conv2d(640, 640, kernel_size=(1, 1), stride=(1, 1))
          (1): BatchNorm2d(640, eps=1e-05, momentum=0.1, affine=True, track_running_stats=True)
        )
        (graph_conv): DyGraphConv2d(
          (gconv): MRConv2d(
            (nn): BasicConv(
              (0): Conv2d(1280, 1280, kernel_size=(1, 1), stride=(1, 1), groups=4)
              (1): BatchNorm2d(1280, eps=1e-05, momentum=0.1, affine=True, track_running_stats=True)
              (2): GELU(approximate='none')
            )
          )
          (dilated_knn_graph): DenseDilatedKnnGraph(
            (_dilated): DenseDilated()
          )
        )
        (fc2): Sequential(
          (0): Conv2d(1280, 640, kernel_size=(1, 1), stride=(1, 1))
          (1): BatchNorm2d(640, eps=1e-05, momentum=0.1, affine=True, track_running_stats=True)
        )
        (drop_path): Identity()
      )
      (1): FFN(
        (fc1): Sequential(
          (0): Conv2d(640, 2560, kernel_size=(1, 1), stride=(1, 1))
          (1): BatchNorm2d(2560, eps=1e-05, momentum=0.1, affine=True, track_running_stats=True)
        )
        (act): GELU(approximate='none')
        (fc2): Sequential(
          (0): Conv2d(2560, 640, kernel_size=(1, 1), stride=(1, 1))
          (1): BatchNorm2d(640, eps=1e-05, momentum=0.1, affine=True, track_running_stats=True)
        )
        (drop_path): Identity()
      )
    )
    (8): Sequential(
      (0): Grapher(
        (fc1): Sequential(
          (0): Conv2d(640, 640, kernel_size=(1, 1), stride=(1, 1))
          (1): BatchNorm2d(640, eps=1e-05, momentum=0.1, affine=True, track_running_stats=True)
        )
        (graph_conv): DyGraphConv2d(
          (gconv): MRConv2d(
            (nn): BasicConv(
              (0): Conv2d(1280, 1280, kernel_size=(1, 1), stride=(1, 1), groups=4)
              (1): BatchNorm2d(1280, eps=1e-05, momentum=0.1, affine=True, track_running_stats=True)
              (2): GELU(approximate='none')
            )
          )
          (dilated_knn_graph): DenseDilatedKnnGraph(
            (_dilated): DenseDilated()
          )
        )
        (fc2): Sequential(
          (0): Conv2d(1280, 640, kernel_size=(1, 1), stride=(1, 1))
          (1): BatchNorm2d(640, eps=1e-05, momentum=0.1, affine=True, track_running_stats=True)
        )
        (drop_path): Identity()
      )
      (1): FFN(
        (fc1): Sequential(
          (0): Conv2d(640, 2560, kernel_size=(1, 1), stride=(1, 1))
          (1): BatchNorm2d(2560, eps=1e-05, momentum=0.1, affine=True, track_running_stats=True)
        )
        (act): GELU(approximate='none')
        (fc2): Sequential(
          (0): Conv2d(2560, 640, kernel_size=(1, 1), stride=(1, 1))
          (1): BatchNorm2d(640, eps=1e-05, momentum=0.1, affine=True, track_running_stats=True)
        )
        (drop_path): Identity()
      )
    )
    (9): Sequential(
      (0): Grapher(
        (fc1): Sequential(
          (0): Conv2d(640, 640, kernel_size=(1, 1), stride=(1, 1))
          (1): BatchNorm2d(640, eps=1e-05, momentum=0.1, affine=True, track_running_stats=True)
        )
        (graph_conv): DyGraphConv2d(
          (gconv): MRConv2d(
            (nn): BasicConv(
              (0): Conv2d(1280, 1280, kernel_size=(1, 1), stride=(1, 1), groups=4)
              (1): BatchNorm2d(1280, eps=1e-05, momentum=0.1, affine=True, track_running_stats=True)
              (2): GELU(approximate='none')
            )
          )
          (dilated_knn_graph): DenseDilatedKnnGraph(
            (_dilated): DenseDilated()
          )
        )
        (fc2): Sequential(
          (0): Conv2d(1280, 640, kernel_size=(1, 1), stride=(1, 1))
          (1): BatchNorm2d(640, eps=1e-05, momentum=0.1, affine=True, track_running_stats=True)
        )
        (drop_path): Identity()
      )
      (1): FFN(
        (fc1): Sequential(
          (0): Conv2d(640, 2560, kernel_size=(1, 1), stride=(1, 1))
          (1): BatchNorm2d(2560, eps=1e-05, momentum=0.1, affine=True, track_running_stats=True)
        )
        (act): GELU(approximate='none')
        (fc2): Sequential(
          (0): Conv2d(2560, 640, kernel_size=(1, 1), stride=(1, 1))
          (1): BatchNorm2d(640, eps=1e-05, momentum=0.1, affine=True, track_running_stats=True)
        )
        (drop_path): Identity()
      )
    )
    (10): Sequential(
      (0): Grapher(
        (fc1): Sequential(
          (0): Conv2d(640, 640, kernel_size=(1, 1), stride=(1, 1))
          (1): BatchNorm2d(640, eps=1e-05, momentum=0.1, affine=True, track_running_stats=True)
        )
        (graph_conv): DyGraphConv2d(
          (gconv): MRConv2d(
            (nn): BasicConv(
              (0): Conv2d(1280, 1280, kernel_size=(1, 1), stride=(1, 1), groups=4)
              (1): BatchNorm2d(1280, eps=1e-05, momentum=0.1, affine=True, track_running_stats=True)
              (2): GELU(approximate='none')
            )
          )
          (dilated_knn_graph): DenseDilatedKnnGraph(
            (_dilated): DenseDilated()
          )
        )
        (fc2): Sequential(
          (0): Conv2d(1280, 640, kernel_size=(1, 1), stride=(1, 1))
          (1): BatchNorm2d(640, eps=1e-05, momentum=0.1, affine=True, track_running_stats=True)
        )
        (drop_path): Identity()
      )
      (1): FFN(
        (fc1): Sequential(
          (0): Conv2d(640, 2560, kernel_size=(1, 1), stride=(1, 1))
          (1): BatchNorm2d(2560, eps=1e-05, momentum=0.1, affine=True, track_running_stats=True)
        )
        (act): GELU(approximate='none')
        (fc2): Sequential(
          (0): Conv2d(2560, 640, kernel_size=(1, 1), stride=(1, 1))
          (1): BatchNorm2d(640, eps=1e-05, momentum=0.1, affine=True, track_running_stats=True)
        )
        (drop_path): Identity()
      )
    )
    (11): Sequential(
      (0): Grapher(
        (fc1): Sequential(
          (0): Conv2d(640, 640, kernel_size=(1, 1), stride=(1, 1))
          (1): BatchNorm2d(640, eps=1e-05, momentum=0.1, affine=True, track_running_stats=True)
        )
        (graph_conv): DyGraphConv2d(
          (gconv): MRConv2d(
            (nn): BasicConv(
              (0): Conv2d(1280, 1280, kernel_size=(1, 1), stride=(1, 1), groups=4)
              (1): BatchNorm2d(1280, eps=1e-05, momentum=0.1, affine=True, track_running_stats=True)
              (2): GELU(approximate='none')
            )
          )
          (dilated_knn_graph): DenseDilatedKnnGraph(
            (_dilated): DenseDilated()
          )
        )
        (fc2): Sequential(
          (0): Conv2d(1280, 640, kernel_size=(1, 1), stride=(1, 1))
          (1): BatchNorm2d(640, eps=1e-05, momentum=0.1, affine=True, track_running_stats=True)
        )
        (drop_path): Identity()
      )
      (1): FFN(
        (fc1): Sequential(
          (0): Conv2d(640, 2560, kernel_size=(1, 1), stride=(1, 1))
          (1): BatchNorm2d(2560, eps=1e-05, momentum=0.1, affine=True, track_running_stats=True)
        )
        (act): GELU(approximate='none')
        (fc2): Sequential(
          (0): Conv2d(2560, 640, kernel_size=(1, 1), stride=(1, 1))
          (1): BatchNorm2d(640, eps=1e-05, momentum=0.1, affine=True, track_running_stats=True)
        )
        (drop_path): Identity()
      )
    )
    (12): Sequential(
      (0): Grapher(
        (fc1): Sequential(
          (0): Conv2d(640, 640, kernel_size=(1, 1), stride=(1, 1))
          (1): BatchNorm2d(640, eps=1e-05, momentum=0.1, affine=True, track_running_stats=True)
        )
        (graph_conv): DyGraphConv2d(
          (gconv): MRConv2d(
            (nn): BasicConv(
              (0): Conv2d(1280, 1280, kernel_size=(1, 1), stride=(1, 1), groups=4)
              (1): BatchNorm2d(1280, eps=1e-05, momentum=0.1, affine=True, track_running_stats=True)
              (2): GELU(approximate='none')
            )
          )
          (dilated_knn_graph): DenseDilatedKnnGraph(
            (_dilated): DenseDilated()
          )
        )
        (fc2): Sequential(
          (0): Conv2d(1280, 640, kernel_size=(1, 1), stride=(1, 1))
          (1): BatchNorm2d(640, eps=1e-05, momentum=0.1, affine=True, track_running_stats=True)
        )
        (drop_path): Identity()
      )
      (1): FFN(
        (fc1): Sequential(
          (0): Conv2d(640, 2560, kernel_size=(1, 1), stride=(1, 1))
          (1): BatchNorm2d(2560, eps=1e-05, momentum=0.1, affine=True, track_running_stats=True)
        )
        (act): GELU(approximate='none')
        (fc2): Sequential(
          (0): Conv2d(2560, 640, kernel_size=(1, 1), stride=(1, 1))
          (1): BatchNorm2d(640, eps=1e-05, momentum=0.1, affine=True, track_running_stats=True)
        )
        (drop_path): Identity()
      )
    )
    (13): Sequential(
      (0): Grapher(
        (fc1): Sequential(
          (0): Conv2d(640, 640, kernel_size=(1, 1), stride=(1, 1))
          (1): BatchNorm2d(640, eps=1e-05, momentum=0.1, affine=True, track_running_stats=True)
        )
        (graph_conv): DyGraphConv2d(
          (gconv): MRConv2d(
            (nn): BasicConv(
              (0): Conv2d(1280, 1280, kernel_size=(1, 1), stride=(1, 1), groups=4)
              (1): BatchNorm2d(1280, eps=1e-05, momentum=0.1, affine=True, track_running_stats=True)
              (2): GELU(approximate='none')
            )
          )
          (dilated_knn_graph): DenseDilatedKnnGraph(
            (_dilated): DenseDilated()
          )
        )
        (fc2): Sequential(
          (0): Conv2d(1280, 640, kernel_size=(1, 1), stride=(1, 1))
          (1): BatchNorm2d(640, eps=1e-05, momentum=0.1, affine=True, track_running_stats=True)
        )
        (drop_path): Identity()
      )
      (1): FFN(
        (fc1): Sequential(
          (0): Conv2d(640, 2560, kernel_size=(1, 1), stride=(1, 1))
          (1): BatchNorm2d(2560, eps=1e-05, momentum=0.1, affine=True, track_running_stats=True)
        )
        (act): GELU(approximate='none')
        (fc2): Sequential(
          (0): Conv2d(2560, 640, kernel_size=(1, 1), stride=(1, 1))
          (1): BatchNorm2d(640, eps=1e-05, momentum=0.1, affine=True, track_running_stats=True)
        )
        (drop_path): Identity()
      )
    )
    (14): Sequential(
      (0): Grapher(
        (fc1): Sequential(
          (0): Conv2d(640, 640, kernel_size=(1, 1), stride=(1, 1))
          (1): BatchNorm2d(640, eps=1e-05, momentum=0.1, affine=True, track_running_stats=True)
        )
        (graph_conv): DyGraphConv2d(
          (gconv): MRConv2d(
            (nn): BasicConv(
              (0): Conv2d(1280, 1280, kernel_size=(1, 1), stride=(1, 1), groups=4)
              (1): BatchNorm2d(1280, eps=1e-05, momentum=0.1, affine=True, track_running_stats=True)
              (2): GELU(approximate='none')
            )
          )
          (dilated_knn_graph): DenseDilatedKnnGraph(
            (_dilated): DenseDilated()
          )
        )
        (fc2): Sequential(
          (0): Conv2d(1280, 640, kernel_size=(1, 1), stride=(1, 1))
          (1): BatchNorm2d(640, eps=1e-05, momentum=0.1, affine=True, track_running_stats=True)
        )
        (drop_path): Identity()
      )
      (1): FFN(
        (fc1): Sequential(
          (0): Conv2d(640, 2560, kernel_size=(1, 1), stride=(1, 1))
          (1): BatchNorm2d(2560, eps=1e-05, momentum=0.1, affine=True, track_running_stats=True)
        )
        (act): GELU(approximate='none')
        (fc2): Sequential(
          (0): Conv2d(2560, 640, kernel_size=(1, 1), stride=(1, 1))
          (1): BatchNorm2d(640, eps=1e-05, momentum=0.1, affine=True, track_running_stats=True)
        )
        (drop_path): Identity()
      )
    )
    (15): Sequential(
      (0): Grapher(
        (fc1): Sequential(
          (0): Conv2d(640, 640, kernel_size=(1, 1), stride=(1, 1))
          (1): BatchNorm2d(640, eps=1e-05, momentum=0.1, affine=True, track_running_stats=True)
        )
        (graph_conv): DyGraphConv2d(
          (gconv): MRConv2d(
            (nn): BasicConv(
              (0): Conv2d(1280, 1280, kernel_size=(1, 1), stride=(1, 1), groups=4)
              (1): BatchNorm2d(1280, eps=1e-05, momentum=0.1, affine=True, track_running_stats=True)
              (2): GELU(approximate='none')
            )
          )
          (dilated_knn_graph): DenseDilatedKnnGraph(
            (_dilated): DenseDilated()
          )
        )
        (fc2): Sequential(
          (0): Conv2d(1280, 640, kernel_size=(1, 1), stride=(1, 1))
          (1): BatchNorm2d(640, eps=1e-05, momentum=0.1, affine=True, track_running_stats=True)
        )
        (drop_path): Identity()
      )
      (1): FFN(
        (fc1): Sequential(
          (0): Conv2d(640, 2560, kernel_size=(1, 1), stride=(1, 1))
          (1): BatchNorm2d(2560, eps=1e-05, momentum=0.1, affine=True, track_running_stats=True)
        )
        (act): GELU(approximate='none')
        (fc2): Sequential(
          (0): Conv2d(2560, 640, kernel_size=(1, 1), stride=(1, 1))
          (1): BatchNorm2d(640, eps=1e-05, momentum=0.1, affine=True, track_running_stats=True)
        )
        (drop_path): Identity()
      )
    )
  )
  (prediction): Sequential(
    (0): Conv2d(640, 1024, kernel_size=(1, 1), stride=(1, 1))
    (1): BatchNorm2d(1024, eps=1e-05, momentum=0.1, affine=True, track_running_stats=True)
    (2): GELU(approximate='none')
    (3): Dropout(p=0.0, inplace=False)
    (4): Conv2d(1024, 10, kernel_size=(1, 1), stride=(1, 1))
  )
)
  0%|          | 0/10 [00:00<?, ?it/s]Epoch 1, Training loss: 1.6256, Validation loss: 1.3599, Validation Accuracy: 0.5048
 10%|█         | 1/10 [07:24<1:06:39, 444.36s/it]Epoch 2, Training loss: 1.2213, Validation loss: 1.2012, Validation Accuracy: 0.5702
 20%|██        | 2/10 [14:50<59:21, 445.16s/it]  Epoch 3, Training loss: 1.0006, Validation loss: 1.0325, Validation Accuracy: 0.6197
…
